2.2.0
test
DataLoaders created successfully!
FloodPredictorHSL(
  (foundation): Foundation(
    (activation): LeakyReLU(negative_slope=0.01)
    (stem): CNNBlock(
      (activation): LeakyReLU(negative_slope=0.01)
      (activation_out): LeakyReLU(negative_slope=0.01)
      (squeeze): SE_Block(
        (squeeze): AdaptiveAvgPool2d(output_size=1)
        (excitation): Sequential(
          (0): Linear(in_features=32, out_features=2, bias=False)
          (1): GELU(approximate='none')
          (2): Linear(in_features=2, out_features=32, bias=False)
          (3): Sigmoid()
        )
      )
      (matcher): Conv2d(10, 32, kernel_size=(1, 1), stride=(1, 1), bias=False)
      (norm1): LayerNorm((32, 128, 128), eps=1e-05, elementwise_affine=True)
      (norm2): LayerNorm((32, 128, 128), eps=1e-05, elementwise_affine=True)
      (conv1): Conv2d(10, 32, kernel_size=(1, 1), stride=(1, 1), bias=False)
      (conv2): Conv2d(32, 32, kernel_size=(3, 3), stride=(1, 1), padding=(1, 1), bias=False, padding_mode=replicate)
      (conv3): Conv2d(32, 32, kernel_size=(1, 1), stride=(1, 1))
      (scaler): ScaleSkip2D()
    )
    (encoder): FoundationEncoder(
      (activation): LeakyReLU(negative_slope=0.01)
      (downsample): ModuleList(
        (0-1): 2 x Sequential(
          (0): Conv2d(32, 32, kernel_size=(1, 1), stride=(1, 1))
          (1): MaxPool2d(kernel_size=2, stride=2, padding=0, dilation=1, ceil_mode=False)
        )
        (2): Sequential(
          (0): Conv2d(32, 64, kernel_size=(1, 1), stride=(1, 1))
          (1): MaxPool2d(kernel_size=2, stride=2, padding=0, dilation=1, ceil_mode=False)
        )
        (3): Sequential(
          (0): Conv2d(64, 64, kernel_size=(1, 1), stride=(1, 1))
          (1): MaxPool2d(kernel_size=2, stride=2, padding=0, dilation=1, ceil_mode=False)
        )
      )
      (block_scalers): ModuleList(
        (0-4): 5 x ScaleSkip2D()
      )
      (blocks_down): ModuleList(
        (0): ModuleList(
          (0-2): 3 x CNNBlock(
            (activation): LeakyReLU(negative_slope=0.01)
            (activation_out): LeakyReLU(negative_slope=0.01)
            (squeeze): SE_Block(
              (squeeze): AdaptiveAvgPool2d(output_size=1)
              (excitation): Sequential(
                (0): Linear(in_features=32, out_features=2, bias=False)
                (1): GELU(approximate='none')
                (2): Linear(in_features=2, out_features=32, bias=False)
                (3): Sigmoid()
              )
            )
            (norm1): LayerNorm((32, 128, 128), eps=1e-05, elementwise_affine=True)
            (norm2): LayerNorm((32, 128, 128), eps=1e-05, elementwise_affine=True)
            (conv1): Conv2d(32, 32, kernel_size=(1, 1), stride=(1, 1), bias=False)
            (conv2): Conv2d(32, 32, kernel_size=(3, 3), stride=(1, 1), padding=(1, 1), bias=False, padding_mode=replicate)
            (conv3): Conv2d(32, 32, kernel_size=(1, 1), stride=(1, 1))
            (scaler): ScaleSkip2D()
          )
        )
        (1): ModuleList(
          (0-2): 3 x CNNBlock(
            (activation): LeakyReLU(negative_slope=0.01)
            (activation_out): LeakyReLU(negative_slope=0.01)
            (squeeze): SE_Block(
              (squeeze): AdaptiveAvgPool2d(output_size=1)
              (excitation): Sequential(
                (0): Linear(in_features=32, out_features=2, bias=False)
                (1): GELU(approximate='none')
                (2): Linear(in_features=2, out_features=32, bias=False)
                (3): Sigmoid()
              )
            )
            (norm1): LayerNorm((32, 64, 64), eps=1e-05, elementwise_affine=True)
            (norm2): LayerNorm((32, 64, 64), eps=1e-05, elementwise_affine=True)
            (conv1): Conv2d(32, 32, kernel_size=(1, 1), stride=(1, 1), bias=False)
            (conv2): Conv2d(32, 32, kernel_size=(3, 3), stride=(1, 1), padding=(1, 1), bias=False, padding_mode=replicate)
            (conv3): Conv2d(32, 32, kernel_size=(1, 1), stride=(1, 1))
            (scaler): ScaleSkip2D()
          )
        )
        (2): ModuleList(
          (0-3): 4 x CNNBlock(
            (activation): LeakyReLU(negative_slope=0.01)
            (activation_out): LeakyReLU(negative_slope=0.01)
            (squeeze): SE_Block(
              (squeeze): AdaptiveAvgPool2d(output_size=1)
              (excitation): Sequential(
                (0): Linear(in_features=32, out_features=2, bias=False)
                (1): GELU(approximate='none')
                (2): Linear(in_features=2, out_features=32, bias=False)
                (3): Sigmoid()
              )
            )
            (norm1): LayerNorm((32, 32, 32), eps=1e-05, elementwise_affine=True)
            (norm2): LayerNorm((32, 32, 32), eps=1e-05, elementwise_affine=True)
            (conv1): Conv2d(32, 32, kernel_size=(1, 1), stride=(1, 1), bias=False)
            (conv2): Conv2d(32, 32, kernel_size=(3, 3), stride=(1, 1), padding=(1, 1), bias=False, padding_mode=replicate)
            (conv3): Conv2d(32, 32, kernel_size=(1, 1), stride=(1, 1))
            (scaler): ScaleSkip2D()
          )
        )
        (3): ModuleList(
          (0-3): 4 x CNNBlock(
            (activation): LeakyReLU(negative_slope=0.01)
            (activation_out): LeakyReLU(negative_slope=0.01)
            (squeeze): SE_Block(
              (squeeze): AdaptiveAvgPool2d(output_size=1)
              (excitation): Sequential(
                (0): Linear(in_features=64, out_features=4, bias=False)
                (1): GELU(approximate='none')
                (2): Linear(in_features=4, out_features=64, bias=False)
                (3): Sigmoid()
              )
            )
            (norm1): LayerNorm((64, 16, 16), eps=1e-05, elementwise_affine=True)
            (norm2): LayerNorm((64, 16, 16), eps=1e-05, elementwise_affine=True)
            (conv1): Conv2d(64, 64, kernel_size=(1, 1), stride=(1, 1), bias=False)
            (conv2): Conv2d(64, 64, kernel_size=(3, 3), stride=(1, 1), padding=(1, 1), bias=False, padding_mode=replicate)
            (conv3): Conv2d(64, 64, kernel_size=(1, 1), stride=(1, 1))
            (scaler): ScaleSkip2D()
          )
        )
        (4): ModuleList(
          (0-4): 5 x CNNBlock(
            (activation): LeakyReLU(negative_slope=0.01)
            (activation_out): LeakyReLU(negative_slope=0.01)
            (squeeze): SE_Block(
              (squeeze): AdaptiveAvgPool2d(output_size=1)
              (excitation): Sequential(
                (0): Linear(in_features=64, out_features=4, bias=False)
                (1): GELU(approximate='none')
                (2): Linear(in_features=4, out_features=64, bias=False)
                (3): Sigmoid()
              )
            )
            (norm1): LayerNorm((64, 8, 8), eps=1e-05, elementwise_affine=True)
            (norm2): LayerNorm((64, 8, 8), eps=1e-05, elementwise_affine=True)
            (conv1): Conv2d(64, 64, kernel_size=(1, 1), stride=(1, 1), bias=False)
            (conv2): Conv2d(64, 64, kernel_size=(3, 3), stride=(1, 1), padding=(1, 1), bias=False, padding_mode=replicate)
            (conv3): Conv2d(64, 64, kernel_size=(1, 1), stride=(1, 1))
            (scaler): ScaleSkip2D()
          )
        )
      )
      (prelinear_norm): LayerNorm((64, 8, 8), eps=1e-05, elementwise_affine=True)
      (linear_encode): Sequential(
        (0): LeakyReLU(negative_slope=0.01)
        (1): Linear(in_features=4096, out_features=1024, bias=True)
        (2): LayerNorm((1024,), eps=1e-05, elementwise_affine=True)
      )
      (head_clouds): Sequential(
        (0): Linear(in_features=1024, out_features=4, bias=True)
      )
      (head_landcover): Sequential(
        (0): Linear(in_features=1024, out_features=11, bias=True)
      )
      (head_buildings): Sequential(
        (0): Linear(in_features=1024, out_features=1, bias=True)
        (1): Sigmoid()
      )
      (head_water): Sequential(
        (0): Linear(in_features=1024, out_features=1, bias=True)
        (1): Sigmoid()
      )
      (head_coords): Sequential(
        (0): Linear(in_features=1024, out_features=4, bias=True)
        (1): Sigmoid()
      )
    )
    (decoder): FoundationDecoder(
      (activation): LeakyReLU(negative_slope=0.01)
      (linear_decode): Linear(in_features=1024, out_features=4096, bias=True)
      (latent_norm): LayerNorm((64, 8, 8), eps=1e-05, elementwise_affine=True)
      (prehead_norm): LayerNorm((32, 128, 128), eps=1e-05, elementwise_affine=True)
      (skip_scalers): ModuleList(
        (0-4): 5 x ScaleSkip2D()
      )
      (block_scalers): ModuleList(
        (0-4): 5 x ScaleSkip2D()
      )
      (blocks_up): ModuleList(
        (0): ModuleList(
          (0-4): 5 x CNNBlock(
            (activation): LeakyReLU(negative_slope=0.01)
            (activation_out): LeakyReLU(negative_slope=0.01)
            (squeeze): SE_Block(
              (squeeze): AdaptiveAvgPool2d(output_size=1)
              (excitation): Sequential(
                (0): Linear(in_features=64, out_features=4, bias=False)
                (1): GELU(approximate='none')
                (2): Linear(in_features=4, out_features=64, bias=False)
                (3): Sigmoid()
              )
            )
            (norm1): LayerNorm((64, 8, 8), eps=1e-05, elementwise_affine=True)
            (norm2): LayerNorm((64, 8, 8), eps=1e-05, elementwise_affine=True)
            (conv1): Conv2d(64, 64, kernel_size=(1, 1), stride=(1, 1), bias=False)
            (conv2): Conv2d(64, 64, kernel_size=(3, 3), stride=(1, 1), padding=(1, 1), bias=False, padding_mode=replicate)
            (conv3): Conv2d(64, 64, kernel_size=(1, 1), stride=(1, 1))
            (scaler): ScaleSkip2D()
          )
        )
        (1): ModuleList(
          (0-3): 4 x CNNBlock(
            (activation): LeakyReLU(negative_slope=0.01)
            (activation_out): LeakyReLU(negative_slope=0.01)
            (squeeze): SE_Block(
              (squeeze): AdaptiveAvgPool2d(output_size=1)
              (excitation): Sequential(
                (0): Linear(in_features=64, out_features=4, bias=False)
                (1): GELU(approximate='none')
                (2): Linear(in_features=4, out_features=64, bias=False)
                (3): Sigmoid()
              )
            )
            (norm1): LayerNorm((64, 16, 16), eps=1e-05, elementwise_affine=True)
            (norm2): LayerNorm((64, 16, 16), eps=1e-05, elementwise_affine=True)
            (conv1): Conv2d(64, 64, kernel_size=(1, 1), stride=(1, 1), bias=False)
            (conv2): Conv2d(64, 64, kernel_size=(3, 3), stride=(1, 1), padding=(1, 1), bias=False, padding_mode=replicate)
            (conv3): Conv2d(64, 64, kernel_size=(1, 1), stride=(1, 1))
            (scaler): ScaleSkip2D()
          )
        )
        (2): ModuleList(
          (0-3): 4 x CNNBlock(
            (activation): LeakyReLU(negative_slope=0.01)
            (activation_out): LeakyReLU(negative_slope=0.01)
            (squeeze): SE_Block(
              (squeeze): AdaptiveAvgPool2d(output_size=1)
              (excitation): Sequential(
                (0): Linear(in_features=32, out_features=2, bias=False)
                (1): GELU(approximate='none')
                (2): Linear(in_features=2, out_features=32, bias=False)
                (3): Sigmoid()
              )
            )
            (norm1): LayerNorm((32, 32, 32), eps=1e-05, elementwise_affine=True)
            (norm2): LayerNorm((32, 32, 32), eps=1e-05, elementwise_affine=True)
            (conv1): Conv2d(32, 32, kernel_size=(1, 1), stride=(1, 1), bias=False)
            (conv2): Conv2d(32, 32, kernel_size=(3, 3), stride=(1, 1), padding=(1, 1), bias=False, padding_mode=replicate)
            (conv3): Conv2d(32, 32, kernel_size=(1, 1), stride=(1, 1))
            (scaler): ScaleSkip2D()
          )
        )
        (3): ModuleList(
          (0-2): 3 x CNNBlock(
            (activation): LeakyReLU(negative_slope=0.01)
            (activation_out): LeakyReLU(negative_slope=0.01)
            (squeeze): SE_Block(
              (squeeze): AdaptiveAvgPool2d(output_size=1)
              (excitation): Sequential(
                (0): Linear(in_features=32, out_features=2, bias=False)
                (1): GELU(approximate='none')
                (2): Linear(in_features=2, out_features=32, bias=False)
                (3): Sigmoid()
              )
            )
            (norm1): LayerNorm((32, 64, 64), eps=1e-05, elementwise_affine=True)
            (norm2): LayerNorm((32, 64, 64), eps=1e-05, elementwise_affine=True)
            (conv1): Conv2d(32, 32, kernel_size=(1, 1), stride=(1, 1), bias=False)
            (conv2): Conv2d(32, 32, kernel_size=(3, 3), stride=(1, 1), padding=(1, 1), bias=False, padding_mode=replicate)
            (conv3): Conv2d(32, 32, kernel_size=(1, 1), stride=(1, 1))
            (scaler): ScaleSkip2D()
          )
        )
        (4): ModuleList(
          (0-2): 3 x CNNBlock(
            (activation): LeakyReLU(negative_slope=0.01)
            (activation_out): LeakyReLU(negative_slope=0.01)
            (squeeze): SE_Block(
              (squeeze): AdaptiveAvgPool2d(output_size=1)
              (excitation): Sequential(
                (0): Linear(in_features=32, out_features=2, bias=False)
                (1): GELU(approximate='none')
                (2): Linear(in_features=2, out_features=32, bias=False)
                (3): Sigmoid()
              )
            )
            (norm1): LayerNorm((32, 128, 128), eps=1e-05, elementwise_affine=True)
            (norm2): LayerNorm((32, 128, 128), eps=1e-05, elementwise_affine=True)
            (conv1): Conv2d(32, 32, kernel_size=(1, 1), stride=(1, 1), bias=False)
            (conv2): Conv2d(32, 32, kernel_size=(3, 3), stride=(1, 1), padding=(1, 1), bias=False, padding_mode=replicate)
            (conv3): Conv2d(32, 32, kernel_size=(1, 1), stride=(1, 1))
            (scaler): ScaleSkip2D()
          )
        )
      )
      (upsamplers): ModuleList(
        (0): Sequential(
          (0): UpsamplingBilinear2d(scale_factor=2.0, mode='bilinear')
          (1): Conv2d(64, 64, kernel_size=(3, 3), stride=(1, 1), padding=(1, 1), bias=False, padding_mode=replicate)
          (2): LayerNorm((64, 16, 16), eps=1e-05, elementwise_affine=True)
          (3): LeakyReLU(negative_slope=0.01)
        )
        (1): Sequential(
          (0): UpsamplingBilinear2d(scale_factor=2.0, mode='bilinear')
          (1): Conv2d(64, 32, kernel_size=(3, 3), stride=(1, 1), padding=(1, 1), bias=False, padding_mode=replicate)
          (2): LayerNorm((32, 32, 32), eps=1e-05, elementwise_affine=True)
          (3): LeakyReLU(negative_slope=0.01)
        )
        (2): Sequential(
          (0): UpsamplingBilinear2d(scale_factor=2.0, mode='bilinear')
          (1): Conv2d(32, 32, kernel_size=(3, 3), stride=(1, 1), padding=(1, 1), bias=False, padding_mode=replicate)
          (2): LayerNorm((32, 64, 64), eps=1e-05, elementwise_affine=True)
          (3): LeakyReLU(negative_slope=0.01)
        )
        (3): Sequential(
          (0): UpsamplingBilinear2d(scale_factor=2.0, mode='bilinear')
          (1): Conv2d(32, 32, kernel_size=(3, 3), stride=(1, 1), padding=(1, 1), bias=False, padding_mode=replicate)
          (2): LayerNorm((32, 128, 128), eps=1e-05, elementwise_affine=True)
          (3): LeakyReLU(negative_slope=0.01)
        )
      )
    )
    (head): CNNBlock(
      (activation): LeakyReLU(negative_slope=0.01)
      (activation_out): Sigmoid()
      (squeeze): SE_Block(
        (squeeze): AdaptiveAvgPool2d(output_size=1)
        (excitation): Sequential(
          (0): Linear(in_features=10, out_features=1, bias=False)
          (1): GELU(approximate='none')
          (2): Linear(in_features=1, out_features=10, bias=False)
          (3): Sigmoid()
        )
      )
      (matcher): Conv2d(32, 10, kernel_size=(1, 1), stride=(1, 1), bias=False)
      (norm1): LayerNorm((10, 128, 128), eps=1e-05, elementwise_affine=True)
      (norm2): LayerNorm((10, 128, 128), eps=1e-05, elementwise_affine=True)
      (conv1): Conv2d(32, 10, kernel_size=(1, 1), stride=(1, 1), bias=False)
      (conv2): Conv2d(10, 10, kernel_size=(3, 3), stride=(1, 1), padding=(1, 1), bias=False, padding_mode=replicate)
      (conv3): Conv2d(10, 10, kernel_size=(1, 1), stride=(1, 1))
      (scaler): ScaleSkip2D()
    )
  )
  (encoder): FoundationEncoder(
    (activation): LeakyReLU(negative_slope=0.01)
    (downsample): ModuleList(
      (0-1): 2 x Sequential(
        (0): Conv2d(32, 32, kernel_size=(1, 1), stride=(1, 1))
        (1): MaxPool2d(kernel_size=2, stride=2, padding=0, dilation=1, ceil_mode=False)
      )
      (2): Sequential(
        (0): Conv2d(32, 64, kernel_size=(1, 1), stride=(1, 1))
        (1): MaxPool2d(kernel_size=2, stride=2, padding=0, dilation=1, ceil_mode=False)
      )
      (3): Sequential(
        (0): Conv2d(64, 64, kernel_size=(1, 1), stride=(1, 1))
        (1): MaxPool2d(kernel_size=2, stride=2, padding=0, dilation=1, ceil_mode=False)
      )
    )
    (block_scalers): ModuleList(
      (0-4): 5 x ScaleSkip2D()
    )
    (blocks_down): ModuleList(
      (0): ModuleList(
        (0-2): 3 x CNNBlock(
          (activation): LeakyReLU(negative_slope=0.01)
          (activation_out): LeakyReLU(negative_slope=0.01)
          (squeeze): SE_Block(
            (squeeze): AdaptiveAvgPool2d(output_size=1)
            (excitation): Sequential(
              (0): Linear(in_features=32, out_features=2, bias=False)
              (1): GELU(approximate='none')
              (2): Linear(in_features=2, out_features=32, bias=False)
              (3): Sigmoid()
            )
          )
          (norm1): LayerNorm((32, 128, 128), eps=1e-05, elementwise_affine=True)
          (norm2): LayerNorm((32, 128, 128), eps=1e-05, elementwise_affine=True)
          (conv1): Conv2d(32, 32, kernel_size=(1, 1), stride=(1, 1), bias=False)
          (conv2): Conv2d(32, 32, kernel_size=(3, 3), stride=(1, 1), padding=(1, 1), bias=False, padding_mode=replicate)
          (conv3): Conv2d(32, 32, kernel_size=(1, 1), stride=(1, 1))
          (scaler): ScaleSkip2D()
        )
      )
      (1): ModuleList(
        (0-2): 3 x CNNBlock(
          (activation): LeakyReLU(negative_slope=0.01)
          (activation_out): LeakyReLU(negative_slope=0.01)
          (squeeze): SE_Block(
            (squeeze): AdaptiveAvgPool2d(output_size=1)
            (excitation): Sequential(
              (0): Linear(in_features=32, out_features=2, bias=False)
              (1): GELU(approximate='none')
              (2): Linear(in_features=2, out_features=32, bias=False)
              (3): Sigmoid()
            )
          )
          (norm1): LayerNorm((32, 64, 64), eps=1e-05, elementwise_affine=True)
          (norm2): LayerNorm((32, 64, 64), eps=1e-05, elementwise_affine=True)
          (conv1): Conv2d(32, 32, kernel_size=(1, 1), stride=(1, 1), bias=False)
          (conv2): Conv2d(32, 32, kernel_size=(3, 3), stride=(1, 1), padding=(1, 1), bias=False, padding_mode=replicate)
          (conv3): Conv2d(32, 32, kernel_size=(1, 1), stride=(1, 1))
          (scaler): ScaleSkip2D()
        )
      )
      (2): ModuleList(
        (0-3): 4 x CNNBlock(
          (activation): LeakyReLU(negative_slope=0.01)
          (activation_out): LeakyReLU(negative_slope=0.01)
          (squeeze): SE_Block(
            (squeeze): AdaptiveAvgPool2d(output_size=1)
            (excitation): Sequential(
              (0): Linear(in_features=32, out_features=2, bias=False)
              (1): GELU(approximate='none')
              (2): Linear(in_features=2, out_features=32, bias=False)
              (3): Sigmoid()
            )
          )
          (norm1): LayerNorm((32, 32, 32), eps=1e-05, elementwise_affine=True)
          (norm2): LayerNorm((32, 32, 32), eps=1e-05, elementwise_affine=True)
          (conv1): Conv2d(32, 32, kernel_size=(1, 1), stride=(1, 1), bias=False)
          (conv2): Conv2d(32, 32, kernel_size=(3, 3), stride=(1, 1), padding=(1, 1), bias=False, padding_mode=replicate)
          (conv3): Conv2d(32, 32, kernel_size=(1, 1), stride=(1, 1))
          (scaler): ScaleSkip2D()
        )
      )
      (3): ModuleList(
        (0-3): 4 x CNNBlock(
          (activation): LeakyReLU(negative_slope=0.01)
          (activation_out): LeakyReLU(negative_slope=0.01)
          (squeeze): SE_Block(
            (squeeze): AdaptiveAvgPool2d(output_size=1)
            (excitation): Sequential(
              (0): Linear(in_features=64, out_features=4, bias=False)
              (1): GELU(approximate='none')
              (2): Linear(in_features=4, out_features=64, bias=False)
              (3): Sigmoid()
            )
          )
          (norm1): LayerNorm((64, 16, 16), eps=1e-05, elementwise_affine=True)
          (norm2): LayerNorm((64, 16, 16), eps=1e-05, elementwise_affine=True)
          (conv1): Conv2d(64, 64, kernel_size=(1, 1), stride=(1, 1), bias=False)
          (conv2): Conv2d(64, 64, kernel_size=(3, 3), stride=(1, 1), padding=(1, 1), bias=False, padding_mode=replicate)
          (conv3): Conv2d(64, 64, kernel_size=(1, 1), stride=(1, 1))
          (scaler): ScaleSkip2D()
        )
      )
      (4): ModuleList(
        (0-4): 5 x CNNBlock(
          (activation): LeakyReLU(negative_slope=0.01)
          (activation_out): LeakyReLU(negative_slope=0.01)
          (squeeze): SE_Block(
            (squeeze): AdaptiveAvgPool2d(output_size=1)
            (excitation): Sequential(
              (0): Linear(in_features=64, out_features=4, bias=False)
              (1): GELU(approximate='none')
              (2): Linear(in_features=4, out_features=64, bias=False)
              (3): Sigmoid()
            )
          )
          (norm1): LayerNorm((64, 8, 8), eps=1e-05, elementwise_affine=True)
          (norm2): LayerNorm((64, 8, 8), eps=1e-05, elementwise_affine=True)
          (conv1): Conv2d(64, 64, kernel_size=(1, 1), stride=(1, 1), bias=False)
          (conv2): Conv2d(64, 64, kernel_size=(3, 3), stride=(1, 1), padding=(1, 1), bias=False, padding_mode=replicate)
          (conv3): Conv2d(64, 64, kernel_size=(1, 1), stride=(1, 1))
          (scaler): ScaleSkip2D()
        )
      )
    )
    (prelinear_norm): LayerNorm((64, 8, 8), eps=1e-05, elementwise_affine=True)
    (linear_encode): Sequential(
      (0): LeakyReLU(negative_slope=0.01)
      (1): Linear(in_features=4096, out_features=1024, bias=True)
      (2): LayerNorm((1024,), eps=1e-05, elementwise_affine=True)
    )
    (head_clouds): Sequential(
      (0): Linear(in_features=1024, out_features=4, bias=True)
    )
    (head_landcover): Sequential(
      (0): Linear(in_features=1024, out_features=11, bias=True)
    )
    (head_buildings): Sequential(
      (0): Linear(in_features=1024, out_features=1, bias=True)
      (1): Sigmoid()
    )
    (head_water): Sequential(
      (0): Linear(in_features=1024, out_features=1, bias=True)
      (1): Sigmoid()
    )
    (head_coords): Sequential(
      (0): Linear(in_features=1024, out_features=4, bias=True)
      (1): Sigmoid()
    )
  )
  (decoder): FoundationDecoder(
    (activation): LeakyReLU(negative_slope=0.01)
    (linear_decode): Linear(in_features=1024, out_features=4096, bias=True)
    (latent_norm): LayerNorm((64, 8, 8), eps=1e-05, elementwise_affine=True)
    (prehead_norm): LayerNorm((32, 128, 128), eps=1e-05, elementwise_affine=True)
    (skip_scalers): ModuleList(
      (0-4): 5 x ScaleSkip2D()
    )
    (block_scalers): ModuleList(
      (0-4): 5 x ScaleSkip2D()
    )
    (blocks_up): ModuleList(
      (0): ModuleList(
        (0-4): 5 x CNNBlock(
          (activation): LeakyReLU(negative_slope=0.01)
          (activation_out): LeakyReLU(negative_slope=0.01)
          (squeeze): SE_Block(
            (squeeze): AdaptiveAvgPool2d(output_size=1)
            (excitation): Sequential(
              (0): Linear(in_features=64, out_features=4, bias=False)
              (1): GELU(approximate='none')
              (2): Linear(in_features=4, out_features=64, bias=False)
              (3): Sigmoid()
            )
          )
          (norm1): LayerNorm((64, 8, 8), eps=1e-05, elementwise_affine=True)
          (norm2): LayerNorm((64, 8, 8), eps=1e-05, elementwise_affine=True)
          (conv1): Conv2d(64, 64, kernel_size=(1, 1), stride=(1, 1), bias=False)
          (conv2): Conv2d(64, 64, kernel_size=(3, 3), stride=(1, 1), padding=(1, 1), bias=False, padding_mode=replicate)
          (conv3): Conv2d(64, 64, kernel_size=(1, 1), stride=(1, 1))
          (scaler): ScaleSkip2D()
        )
      )
      (1): ModuleList(
        (0-3): 4 x CNNBlock(
          (activation): LeakyReLU(negative_slope=0.01)
          (activation_out): LeakyReLU(negative_slope=0.01)
          (squeeze): SE_Block(
            (squeeze): AdaptiveAvgPool2d(output_size=1)
            (excitation): Sequential(
              (0): Linear(in_features=64, out_features=4, bias=False)
              (1): GELU(approximate='none')
              (2): Linear(in_features=4, out_features=64, bias=False)
              (3): Sigmoid()
            )
          )
          (norm1): LayerNorm((64, 16, 16), eps=1e-05, elementwise_affine=True)
          (norm2): LayerNorm((64, 16, 16), eps=1e-05, elementwise_affine=True)
          (conv1): Conv2d(64, 64, kernel_size=(1, 1), stride=(1, 1), bias=False)
          (conv2): Conv2d(64, 64, kernel_size=(3, 3), stride=(1, 1), padding=(1, 1), bias=False, padding_mode=replicate)
          (conv3): Conv2d(64, 64, kernel_size=(1, 1), stride=(1, 1))
          (scaler): ScaleSkip2D()
        )
      )
      (2): ModuleList(
        (0-3): 4 x CNNBlock(
          (activation): LeakyReLU(negative_slope=0.01)
          (activation_out): LeakyReLU(negative_slope=0.01)
          (squeeze): SE_Block(
            (squeeze): AdaptiveAvgPool2d(output_size=1)
            (excitation): Sequential(
              (0): Linear(in_features=32, out_features=2, bias=False)
              (1): GELU(approximate='none')
              (2): Linear(in_features=2, out_features=32, bias=False)
              (3): Sigmoid()
            )
          )
          (norm1): LayerNorm((32, 32, 32), eps=1e-05, elementwise_affine=True)
          (norm2): LayerNorm((32, 32, 32), eps=1e-05, elementwise_affine=True)
          (conv1): Conv2d(32, 32, kernel_size=(1, 1), stride=(1, 1), bias=False)
          (conv2): Conv2d(32, 32, kernel_size=(3, 3), stride=(1, 1), padding=(1, 1), bias=False, padding_mode=replicate)
          (conv3): Conv2d(32, 32, kernel_size=(1, 1), stride=(1, 1))
          (scaler): ScaleSkip2D()
        )
      )
      (3): ModuleList(
        (0-2): 3 x CNNBlock(
          (activation): LeakyReLU(negative_slope=0.01)
          (activation_out): LeakyReLU(negative_slope=0.01)
          (squeeze): SE_Block(
            (squeeze): AdaptiveAvgPool2d(output_size=1)
            (excitation): Sequential(
              (0): Linear(in_features=32, out_features=2, bias=False)
              (1): GELU(approximate='none')
              (2): Linear(in_features=2, out_features=32, bias=False)
              (3): Sigmoid()
            )
          )
          (norm1): LayerNorm((32, 64, 64), eps=1e-05, elementwise_affine=True)
          (norm2): LayerNorm((32, 64, 64), eps=1e-05, elementwise_affine=True)
          (conv1): Conv2d(32, 32, kernel_size=(1, 1), stride=(1, 1), bias=False)
          (conv2): Conv2d(32, 32, kernel_size=(3, 3), stride=(1, 1), padding=(1, 1), bias=False, padding_mode=replicate)
          (conv3): Conv2d(32, 32, kernel_size=(1, 1), stride=(1, 1))
          (scaler): ScaleSkip2D()
        )
      )
      (4): ModuleList(
        (0-2): 3 x CNNBlock(
          (activation): LeakyReLU(negative_slope=0.01)
          (activation_out): LeakyReLU(negative_slope=0.01)
          (squeeze): SE_Block(
            (squeeze): AdaptiveAvgPool2d(output_size=1)
            (excitation): Sequential(
              (0): Linear(in_features=32, out_features=2, bias=False)
              (1): GELU(approximate='none')
              (2): Linear(in_features=2, out_features=32, bias=False)
              (3): Sigmoid()
            )
          )
          (norm1): LayerNorm((32, 128, 128), eps=1e-05, elementwise_affine=True)
          (norm2): LayerNorm((32, 128, 128), eps=1e-05, elementwise_affine=True)
          (conv1): Conv2d(32, 32, kernel_size=(1, 1), stride=(1, 1), bias=False)
          (conv2): Conv2d(32, 32, kernel_size=(3, 3), stride=(1, 1), padding=(1, 1), bias=False, padding_mode=replicate)
          (conv3): Conv2d(32, 32, kernel_size=(1, 1), stride=(1, 1))
          (scaler): ScaleSkip2D()
        )
      )
    )
    (upsamplers): ModuleList(
      (0): Sequential(
        (0): UpsamplingBilinear2d(scale_factor=2.0, mode='bilinear')
        (1): Conv2d(64, 64, kernel_size=(3, 3), stride=(1, 1), padding=(1, 1), bias=False, padding_mode=replicate)
        (2): LayerNorm((64, 16, 16), eps=1e-05, elementwise_affine=True)
        (3): LeakyReLU(negative_slope=0.01)
      )
      (1): Sequential(
        (0): UpsamplingBilinear2d(scale_factor=2.0, mode='bilinear')
        (1): Conv2d(64, 32, kernel_size=(3, 3), stride=(1, 1), padding=(1, 1), bias=False, padding_mode=replicate)
        (2): LayerNorm((32, 32, 32), eps=1e-05, elementwise_affine=True)
        (3): LeakyReLU(negative_slope=0.01)
      )
      (2): Sequential(
        (0): UpsamplingBilinear2d(scale_factor=2.0, mode='bilinear')
        (1): Conv2d(32, 32, kernel_size=(3, 3), stride=(1, 1), padding=(1, 1), bias=False, padding_mode=replicate)
        (2): LayerNorm((32, 64, 64), eps=1e-05, elementwise_affine=True)
        (3): LeakyReLU(negative_slope=0.01)
      )
      (3): Sequential(
        (0): UpsamplingBilinear2d(scale_factor=2.0, mode='bilinear')
        (1): Conv2d(32, 32, kernel_size=(3, 3), stride=(1, 1), padding=(1, 1), bias=False, padding_mode=replicate)
        (2): LayerNorm((32, 128, 128), eps=1e-05, elementwise_affine=True)
        (3): LeakyReLU(negative_slope=0.01)
      )
    )
  )
  (stem): CNNBlock(
    (activation): LeakyReLU(negative_slope=0.01)
    (activation_out): LeakyReLU(negative_slope=0.01)
    (squeeze): SE_Block(
      (squeeze): AdaptiveAvgPool2d(output_size=1)
      (excitation): Sequential(
        (0): Linear(in_features=32, out_features=2, bias=False)
        (1): GELU(approximate='none')
        (2): Linear(in_features=2, out_features=32, bias=False)
        (3): Sigmoid()
      )
    )
    (matcher): Conv2d(7, 32, kernel_size=(1, 1), stride=(1, 1), bias=False)
    (norm1): LayerNorm((32, 128, 128), eps=1e-05, elementwise_affine=True)
    (norm2): LayerNorm((32, 128, 128), eps=1e-05, elementwise_affine=True)
    (conv1): Conv2d(7, 32, kernel_size=(1, 1), stride=(1, 1), bias=False)
    (conv2): Conv2d(32, 32, kernel_size=(3, 3), stride=(1, 1), padding=(1, 1), bias=False, padding_mode=replicate)
    (conv3): Conv2d(32, 32, kernel_size=(1, 1), stride=(1, 1))
  )
  (head): CNNBlock(
    (activation): LeakyReLU(negative_slope=0.01)
    (activation_out): Sigmoid()
    (squeeze): SE_Block(
      (squeeze): AdaptiveAvgPool2d(output_size=1)
      (excitation): Sequential(
        (0): Linear(in_features=2, out_features=1, bias=False)
        (1): GELU(approximate='none')
        (2): Linear(in_features=1, out_features=2, bias=False)
        (3): Sigmoid()
      )
    )
    (matcher): Conv2d(32, 2, kernel_size=(1, 1), stride=(1, 1), bias=False)
    (norm1): LayerNorm((2, 128, 128), eps=1e-05, elementwise_affine=True)
    (norm2): LayerNorm((2, 128, 128), eps=1e-05, elementwise_affine=True)
    (conv1): Conv2d(32, 2, kernel_size=(1, 1), stride=(1, 1), bias=False)
    (conv2): Conv2d(2, 2, kernel_size=(3, 3), stride=(1, 1), padding=(1, 1), bias=False, padding_mode=replicate)
    (conv3): Conv2d(2, 2, kernel_size=(1, 1), stride=(1, 1))
    (scaler): ScaleSkip2D()
  )
)
Epoch 0/199
----------
train Loss: 0.6464 acc: 0.0000
val Loss: 0.5778 acc: 0.0000

Epoch 1/199
----------
train Loss: 0.5625 acc: 0.0000
val Loss: 0.5210 acc: 0.0000

Epoch 2/199
----------
train Loss: 0.5117 acc: 0.0000
val Loss: 0.4780 acc: 0.0000

Epoch 3/199
----------
train Loss: 0.4770 acc: 0.0000
val Loss: 0.4715 acc: 0.0000
…
