2.2.0
test
DataLoaders created successfully!
Model(
  (backbone): SwinBackbone(
    (backbone): SwinTransformer(
      (features): Sequential(
        (0): Sequential(
          (0): Conv2d(12, 128, kernel_size=(4, 4), stride=(4, 4))
          (1): Permute()
          (2): LayerNorm((128,), eps=1e-05, elementwise_affine=True)
        )
        (1): Sequential(
          (0): SwinTransformerBlockV2(
            (norm1): LayerNorm((128,), eps=1e-05, elementwise_affine=True)
            (attn): ShiftedWindowAttentionV2(
              (qkv): Linear(in_features=128, out_features=384, bias=True)
              (proj): Linear(in_features=128, out_features=128, bias=True)
              (cpb_mlp): Sequential(
                (0): Linear(in_features=2, out_features=512, bias=True)
                (1): ReLU(inplace=True)
                (2): Linear(in_features=512, out_features=4, bias=False)
              )
            )
            (stochastic_depth): StochasticDepth(p=0.0, mode=row)
            (norm2): LayerNorm((128,), eps=1e-05, elementwise_affine=True)
            (mlp): MLP(
              (0): Linear(in_features=128, out_features=512, bias=True)
              (1): GELU(approximate='none')
              (2): Dropout(p=0.0, inplace=False)
              (3): Linear(in_features=512, out_features=128, bias=True)
              (4): Dropout(p=0.0, inplace=False)
            )
          )
          (1): SwinTransformerBlockV2(
            (norm1): LayerNorm((128,), eps=1e-05, elementwise_affine=True)
            (attn): ShiftedWindowAttentionV2(
              (qkv): Linear(in_features=128, out_features=384, bias=True)
              (proj): Linear(in_features=128, out_features=128, bias=True)
              (cpb_mlp): Sequential(
                (0): Linear(in_features=2, out_features=512, bias=True)
                (1): ReLU(inplace=True)
                (2): Linear(in_features=512, out_features=4, bias=False)
              )
            )
            (stochastic_depth): StochasticDepth(p=0.021739130434782608, mode=row)
            (norm2): LayerNorm((128,), eps=1e-05, elementwise_affine=True)
            (mlp): MLP(
              (0): Linear(in_features=128, out_features=512, bias=True)
              (1): GELU(approximate='none')
              (2): Dropout(p=0.0, inplace=False)
              (3): Linear(in_features=512, out_features=128, bias=True)
              (4): Dropout(p=0.0, inplace=False)
            )
          )
        )
        (2): PatchMergingV2(
          (reduction): Linear(in_features=512, out_features=256, bias=False)
          (norm): LayerNorm((256,), eps=1e-05, elementwise_affine=True)
        )
        (3): Sequential(
          (0): SwinTransformerBlockV2(
            (norm1): LayerNorm((256,), eps=1e-05, elementwise_affine=True)
            (attn): ShiftedWindowAttentionV2(
              (qkv): Linear(in_features=256, out_features=768, bias=True)
              (proj): Linear(in_features=256, out_features=256, bias=True)
              (cpb_mlp): Sequential(
                (0): Linear(in_features=2, out_features=512, bias=True)
                (1): ReLU(inplace=True)
                (2): Linear(in_features=512, out_features=8, bias=False)
              )
            )
            (stochastic_depth): StochasticDepth(p=0.043478260869565216, mode=row)
            (norm2): LayerNorm((256,), eps=1e-05, elementwise_affine=True)
            (mlp): MLP(
              (0): Linear(in_features=256, out_features=1024, bias=True)
              (1): GELU(approximate='none')
              (2): Dropout(p=0.0, inplace=False)
              (3): Linear(in_features=1024, out_features=256, bias=True)
              (4): Dropout(p=0.0, inplace=False)
            )
          )
          (1): SwinTransformerBlockV2(
            (norm1): LayerNorm((256,), eps=1e-05, elementwise_affine=True)
            (attn): ShiftedWindowAttentionV2(
              (qkv): Linear(in_features=256, out_features=768, bias=True)
              (proj): Linear(in_features=256, out_features=256, bias=True)
              (cpb_mlp): Sequential(
                (0): Linear(in_features=2, out_features=512, bias=True)
                (1): ReLU(inplace=True)
                (2): Linear(in_features=512, out_features=8, bias=False)
              )
            )
            (stochastic_depth): StochasticDepth(p=0.06521739130434782, mode=row)
            (norm2): LayerNorm((256,), eps=1e-05, elementwise_affine=True)
            (mlp): MLP(
              (0): Linear(in_features=256, out_features=1024, bias=True)
              (1): GELU(approximate='none')
              (2): Dropout(p=0.0, inplace=False)
              (3): Linear(in_features=1024, out_features=256, bias=True)
              (4): Dropout(p=0.0, inplace=False)
            )
          )
        )
        (4): PatchMergingV2(
          (reduction): Linear(in_features=1024, out_features=512, bias=False)
          (norm): LayerNorm((512,), eps=1e-05, elementwise_affine=True)
        )
        (5): Sequential(
          (0): SwinTransformerBlockV2(
            (norm1): LayerNorm((512,), eps=1e-05, elementwise_affine=True)
            (attn): ShiftedWindowAttentionV2(
              (qkv): Linear(in_features=512, out_features=1536, bias=True)
              (proj): Linear(in_features=512, out_features=512, bias=True)
              (cpb_mlp): Sequential(
                (0): Linear(in_features=2, out_features=512, bias=True)
                (1): ReLU(inplace=True)
                (2): Linear(in_features=512, out_features=16, bias=False)
              )
            )
            (stochastic_depth): StochasticDepth(p=0.08695652173913043, mode=row)
            (norm2): LayerNorm((512,), eps=1e-05, elementwise_affine=True)
            (mlp): MLP(
              (0): Linear(in_features=512, out_features=2048, bias=True)
              (1): GELU(approximate='none')
              (2): Dropout(p=0.0, inplace=False)
              (3): Linear(in_features=2048, out_features=512, bias=True)
              (4): Dropout(p=0.0, inplace=False)
            )
          )
          (1): SwinTransformerBlockV2(
            (norm1): LayerNorm((512,), eps=1e-05, elementwise_affine=True)
            (attn): ShiftedWindowAttentionV2(
              (qkv): Linear(in_features=512, out_features=1536, bias=True)
              (proj): Linear(in_features=512, out_features=512, bias=True)
              (cpb_mlp): Sequential(
                (0): Linear(in_features=2, out_features=512, bias=True)
                (1): ReLU(inplace=True)
                (2): Linear(in_features=512, out_features=16, bias=False)
              )
            )
            (stochastic_depth): StochasticDepth(p=0.10869565217391304, mode=row)
            (norm2): LayerNorm((512,), eps=1e-05, elementwise_affine=True)
            (mlp): MLP(
              (0): Linear(in_features=512, out_features=2048, bias=True)
              (1): GELU(approximate='none')
              (2): Dropout(p=0.0, inplace=False)
              (3): Linear(in_features=2048, out_features=512, bias=True)
              (4): Dropout(p=0.0, inplace=False)
            )
          )
          (2): SwinTransformerBlockV2(
            (norm1): LayerNorm((512,), eps=1e-05, elementwise_affine=True)
            (attn): ShiftedWindowAttentionV2(
              (qkv): Linear(in_features=512, out_features=1536, bias=True)
              (proj): Linear(in_features=512, out_features=512, bias=True)
              (cpb_mlp): Sequential(
                (0): Linear(in_features=2, out_features=512, bias=True)
                (1): ReLU(inplace=True)
                (2): Linear(in_features=512, out_features=16, bias=False)
              )
            )
            (stochastic_depth): StochasticDepth(p=0.13043478260869565, mode=row)
            (norm2): LayerNorm((512,), eps=1e-05, elementwise_affine=True)
            (mlp): MLP(
              (0): Linear(in_features=512, out_features=2048, bias=True)
              (1): GELU(approximate='none')
              (2): Dropout(p=0.0, inplace=False)
              (3): Linear(in_features=2048, out_features=512, bias=True)
              (4): Dropout(p=0.0, inplace=False)
            )
          )
          (3): SwinTransformerBlockV2(
            (norm1): LayerNorm((512,), eps=1e-05, elementwise_affine=True)
            (attn): ShiftedWindowAttentionV2(
              (qkv): Linear(in_features=512, out_features=1536, bias=True)
              (proj): Linear(in_features=512, out_features=512, bias=True)
              (cpb_mlp): Sequential(
                (0): Linear(in_features=2, out_features=512, bias=True)
                (1): ReLU(inplace=True)
                (2): Linear(in_features=512, out_features=16, bias=False)
              )
            )
            (stochastic_depth): StochasticDepth(p=0.15217391304347827, mode=row)
            (norm2): LayerNorm((512,), eps=1e-05, elementwise_affine=True)
            (mlp): MLP(
              (0): Linear(in_features=512, out_features=2048, bias=True)
              (1): GELU(approximate='none')
              (2): Dropout(p=0.0, inplace=False)
              (3): Linear(in_features=2048, out_features=512, bias=True)
              (4): Dropout(p=0.0, inplace=False)
            )
          )
          (4): SwinTransformerBlockV2(
            (norm1): LayerNorm((512,), eps=1e-05, elementwise_affine=True)
            (attn): ShiftedWindowAttentionV2(
              (qkv): Linear(in_features=512, out_features=1536, bias=True)
              (proj): Linear(in_features=512, out_features=512, bias=True)
              (cpb_mlp): Sequential(
                (0): Linear(in_features=2, out_features=512, bias=True)
                (1): ReLU(inplace=True)
                (2): Linear(in_features=512, out_features=16, bias=False)
              )
            )
            (stochastic_depth): StochasticDepth(p=0.17391304347826086, mode=row)
            (norm2): LayerNorm((512,), eps=1e-05, elementwise_affine=True)
            (mlp): MLP(
              (0): Linear(in_features=512, out_features=2048, bias=True)
              (1): GELU(approximate='none')
              (2): Dropout(p=0.0, inplace=False)
              (3): Linear(in_features=2048, out_features=512, bias=True)
              (4): Dropout(p=0.0, inplace=False)
            )
          )
          (5): SwinTransformerBlockV2(
            (norm1): LayerNorm((512,), eps=1e-05, elementwise_affine=True)
            (attn): ShiftedWindowAttentionV2(
              (qkv): Linear(in_features=512, out_features=1536, bias=True)
              (proj): Linear(in_features=512, out_features=512, bias=True)
              (cpb_mlp): Sequential(
                (0): Linear(in_features=2, out_features=512, bias=True)
                (1): ReLU(inplace=True)
                (2): Linear(in_features=512, out_features=16, bias=False)
              )
            )
            (stochastic_depth): StochasticDepth(p=0.1956521739130435, mode=row)
            (norm2): LayerNorm((512,), eps=1e-05, elementwise_affine=True)
            (mlp): MLP(
              (0): Linear(in_features=512, out_features=2048, bias=True)
              (1): GELU(approximate='none')
              (2): Dropout(p=0.0, inplace=False)
              (3): Linear(in_features=2048, out_features=512, bias=True)
              (4): Dropout(p=0.0, inplace=False)
            )
          )
          (6): SwinTransformerBlockV2(
            (norm1): LayerNorm((512,), eps=1e-05, elementwise_affine=True)
            (attn): ShiftedWindowAttentionV2(
              (qkv): Linear(in_features=512, out_features=1536, bias=True)
              (proj): Linear(in_features=512, out_features=512, bias=True)
              (cpb_mlp): Sequential(
                (0): Linear(in_features=2, out_features=512, bias=True)
                (1): ReLU(inplace=True)
                (2): Linear(in_features=512, out_features=16, bias=False)
              )
            )
            (stochastic_depth): StochasticDepth(p=0.21739130434782608, mode=row)
            (norm2): LayerNorm((512,), eps=1e-05, elementwise_affine=True)
            (mlp): MLP(
              (0): Linear(in_features=512, out_features=2048, bias=True)
              (1): GELU(approximate='none')
              (2): Dropout(p=0.0, inplace=False)
              (3): Linear(in_features=2048, out_features=512, bias=True)
              (4): Dropout(p=0.0, inplace=False)
            )
          )
          (7): SwinTransformerBlockV2(
            (norm1): LayerNorm((512,), eps=1e-05, elementwise_affine=True)
            (attn): ShiftedWindowAttentionV2(
              (qkv): Linear(in_features=512, out_features=1536, bias=True)
              (proj): Linear(in_features=512, out_features=512, bias=True)
              (cpb_mlp): Sequential(
                (0): Linear(in_features=2, out_features=512, bias=True)
                (1): ReLU(inplace=True)
                (2): Linear(in_features=512, out_features=16, bias=False)
              )
            )
            (stochastic_depth): StochasticDepth(p=0.2391304347826087, mode=row)
            (norm2): LayerNorm((512,), eps=1e-05, elementwise_affine=True)
            (mlp): MLP(
              (0): Linear(in_features=512, out_features=2048, bias=True)
              (1): GELU(approximate='none')
              (2): Dropout(p=0.0, inplace=False)
              (3): Linear(in_features=2048, out_features=512, bias=True)
              (4): Dropout(p=0.0, inplace=False)
            )
          )
          (8): SwinTransformerBlockV2(
            (norm1): LayerNorm((512,), eps=1e-05, elementwise_affine=True)
            (attn): ShiftedWindowAttentionV2(
              (qkv): Linear(in_features=512, out_features=1536, bias=True)
              (proj): Linear(in_features=512, out_features=512, bias=True)
              (cpb_mlp): Sequential(
                (0): Linear(in_features=2, out_features=512, bias=True)
                (1): ReLU(inplace=True)
                (2): Linear(in_features=512, out_features=16, bias=False)
              )
            )
            (stochastic_depth): StochasticDepth(p=0.2608695652173913, mode=row)
            (norm2): LayerNorm((512,), eps=1e-05, elementwise_affine=True)
            (mlp): MLP(
              (0): Linear(in_features=512, out_features=2048, bias=True)
              (1): GELU(approximate='none')
              (2): Dropout(p=0.0, inplace=False)
              (3): Linear(in_features=2048, out_features=512, bias=True)
              (4): Dropout(p=0.0, inplace=False)
            )
          )
          (9): SwinTransformerBlockV2(
            (norm1): LayerNorm((512,), eps=1e-05, elementwise_affine=True)
            (attn): ShiftedWindowAttentionV2(
              (qkv): Linear(in_features=512, out_features=1536, bias=True)
              (proj): Linear(in_features=512, out_features=512, bias=True)
              (cpb_mlp): Sequential(
                (0): Linear(in_features=2, out_features=512, bias=True)
                (1): ReLU(inplace=True)
                (2): Linear(in_features=512, out_features=16, bias=False)
              )
            )
            (stochastic_depth): StochasticDepth(p=0.2826086956521739, mode=row)
            (norm2): LayerNorm((512,), eps=1e-05, elementwise_affine=True)
            (mlp): MLP(
              (0): Linear(in_features=512, out_features=2048, bias=True)
              (1): GELU(approximate='none')
              (2): Dropout(p=0.0, inplace=False)
              (3): Linear(in_features=2048, out_features=512, bias=True)
              (4): Dropout(p=0.0, inplace=False)
            )
          )
          (10): SwinTransformerBlockV2(
            (norm1): LayerNorm((512,), eps=1e-05, elementwise_affine=True)
            (attn): ShiftedWindowAttentionV2(
              (qkv): Linear(in_features=512, out_features=1536, bias=True)
              (proj): Linear(in_features=512, out_features=512, bias=True)
              (cpb_mlp): Sequential(
                (0): Linear(in_features=2, out_features=512, bias=True)
                (1): ReLU(inplace=True)
                (2): Linear(in_features=512, out_features=16, bias=False)
              )
            )
            (stochastic_depth): StochasticDepth(p=0.30434782608695654, mode=row)
            (norm2): LayerNorm((512,), eps=1e-05, elementwise_affine=True)
            (mlp): MLP(
              (0): Linear(in_features=512, out_features=2048, bias=True)
              (1): GELU(approximate='none')
              (2): Dropout(p=0.0, inplace=False)
              (3): Linear(in_features=2048, out_features=512, bias=True)
              (4): Dropout(p=0.0, inplace=False)
            )
          )
          (11): SwinTransformerBlockV2(
            (norm1): LayerNorm((512,), eps=1e-05, elementwise_affine=True)
            (attn): ShiftedWindowAttentionV2(
              (qkv): Linear(in_features=512, out_features=1536, bias=True)
              (proj): Linear(in_features=512, out_features=512, bias=True)
              (cpb_mlp): Sequential(
                (0): Linear(in_features=2, out_features=512, bias=True)
                (1): ReLU(inplace=True)
                (2): Linear(in_features=512, out_features=16, bias=False)
              )
            )
            (stochastic_depth): StochasticDepth(p=0.32608695652173914, mode=row)
            (norm2): LayerNorm((512,), eps=1e-05, elementwise_affine=True)
            (mlp): MLP(
              (0): Linear(in_features=512, out_features=2048, bias=True)
              (1): GELU(approximate='none')
              (2): Dropout(p=0.0, inplace=False)
              (3): Linear(in_features=2048, out_features=512, bias=True)
              (4): Dropout(p=0.0, inplace=False)
            )
          )
          (12): SwinTransformerBlockV2(
            (norm1): LayerNorm((512,), eps=1e-05, elementwise_affine=True)
            (attn): ShiftedWindowAttentionV2(
              (qkv): Linear(in_features=512, out_features=1536, bias=True)
              (proj): Linear(in_features=512, out_features=512, bias=True)
              (cpb_mlp): Sequential(
                (0): Linear(in_features=2, out_features=512, bias=True)
                (1): ReLU(inplace=True)
                (2): Linear(in_features=512, out_features=16, bias=False)
              )
            )
            (stochastic_depth): StochasticDepth(p=0.34782608695652173, mode=row)
            (norm2): LayerNorm((512,), eps=1e-05, elementwise_affine=True)
            (mlp): MLP(
              (0): Linear(in_features=512, out_features=2048, bias=True)
              (1): GELU(approximate='none')
              (2): Dropout(p=0.0, inplace=False)
              (3): Linear(in_features=2048, out_features=512, bias=True)
              (4): Dropout(p=0.0, inplace=False)
            )
          )
          (13): SwinTransformerBlockV2(
            (norm1): LayerNorm((512,), eps=1e-05, elementwise_affine=True)
            (attn): ShiftedWindowAttentionV2(
              (qkv): Linear(in_features=512, out_features=1536, bias=True)
              (proj): Linear(in_features=512, out_features=512, bias=True)
              (cpb_mlp): Sequential(
                (0): Linear(in_features=2, out_features=512, bias=True)
                (1): ReLU(inplace=True)
                (2): Linear(in_features=512, out_features=16, bias=False)
              )
            )
            (stochastic_depth): StochasticDepth(p=0.3695652173913043, mode=row)
            (norm2): LayerNorm((512,), eps=1e-05, elementwise_affine=True)
            (mlp): MLP(
              (0): Linear(in_features=512, out_features=2048, bias=True)
              (1): GELU(approximate='none')
              (2): Dropout(p=0.0, inplace=False)
              (3): Linear(in_features=2048, out_features=512, bias=True)
              (4): Dropout(p=0.0, inplace=False)
            )
          )
          (14): SwinTransformerBlockV2(
            (norm1): LayerNorm((512,), eps=1e-05, elementwise_affine=True)
            (attn): ShiftedWindowAttentionV2(
              (qkv): Linear(in_features=512, out_features=1536, bias=True)
              (proj): Linear(in_features=512, out_features=512, bias=True)
              (cpb_mlp): Sequential(
                (0): Linear(in_features=2, out_features=512, bias=True)
                (1): ReLU(inplace=True)
                (2): Linear(in_features=512, out_features=16, bias=False)
              )
            )
            (stochastic_depth): StochasticDepth(p=0.391304347826087, mode=row)
            (norm2): LayerNorm((512,), eps=1e-05, elementwise_affine=True)
            (mlp): MLP(
              (0): Linear(in_features=512, out_features=2048, bias=True)
              (1): GELU(approximate='none')
              (2): Dropout(p=0.0, inplace=False)
              (3): Linear(in_features=2048, out_features=512, bias=True)
              (4): Dropout(p=0.0, inplace=False)
            )
          )
          (15): SwinTransformerBlockV2(
            (norm1): LayerNorm((512,), eps=1e-05, elementwise_affine=True)
            (attn): ShiftedWindowAttentionV2(
              (qkv): Linear(in_features=512, out_features=1536, bias=True)
              (proj): Linear(in_features=512, out_features=512, bias=True)
              (cpb_mlp): Sequential(
                (0): Linear(in_features=2, out_features=512, bias=True)
                (1): ReLU(inplace=True)
                (2): Linear(in_features=512, out_features=16, bias=False)
              )
            )
            (stochastic_depth): StochasticDepth(p=0.41304347826086957, mode=row)
            (norm2): LayerNorm((512,), eps=1e-05, elementwise_affine=True)
            (mlp): MLP(
              (0): Linear(in_features=512, out_features=2048, bias=True)
              (1): GELU(approximate='none')
              (2): Dropout(p=0.0, inplace=False)
              (3): Linear(in_features=2048, out_features=512, bias=True)
              (4): Dropout(p=0.0, inplace=False)
            )
          )
          (16): SwinTransformerBlockV2(
            (norm1): LayerNorm((512,), eps=1e-05, elementwise_affine=True)
            (attn): ShiftedWindowAttentionV2(
              (qkv): Linear(in_features=512, out_features=1536, bias=True)
              (proj): Linear(in_features=512, out_features=512, bias=True)
              (cpb_mlp): Sequential(
                (0): Linear(in_features=2, out_features=512, bias=True)
                (1): ReLU(inplace=True)
                (2): Linear(in_features=512, out_features=16, bias=False)
              )
            )
            (stochastic_depth): StochasticDepth(p=0.43478260869565216, mode=row)
            (norm2): LayerNorm((512,), eps=1e-05, elementwise_affine=True)
            (mlp): MLP(
              (0): Linear(in_features=512, out_features=2048, bias=True)
              (1): GELU(approximate='none')
              (2): Dropout(p=0.0, inplace=False)
              (3): Linear(in_features=2048, out_features=512, bias=True)
              (4): Dropout(p=0.0, inplace=False)
            )
          )
          (17): SwinTransformerBlockV2(
            (norm1): LayerNorm((512,), eps=1e-05, elementwise_affine=True)
            (attn): ShiftedWindowAttentionV2(
              (qkv): Linear(in_features=512, out_features=1536, bias=True)
              (proj): Linear(in_features=512, out_features=512, bias=True)
              (cpb_mlp): Sequential(
                (0): Linear(in_features=2, out_features=512, bias=True)
                (1): ReLU(inplace=True)
                (2): Linear(in_features=512, out_features=16, bias=False)
              )
            )
            (stochastic_depth): StochasticDepth(p=0.45652173913043476, mode=row)
            (norm2): LayerNorm((512,), eps=1e-05, elementwise_affine=True)
            (mlp): MLP(
              (0): Linear(in_features=512, out_features=2048, bias=True)
              (1): GELU(approximate='none')
              (2): Dropout(p=0.0, inplace=False)
              (3): Linear(in_features=2048, out_features=512, bias=True)
              (4): Dropout(p=0.0, inplace=False)
            )
          )
        )
        (6): PatchMergingV2(
          (reduction): Linear(in_features=2048, out_features=1024, bias=False)
          (norm): LayerNorm((1024,), eps=1e-05, elementwise_affine=True)
        )
        (7): Sequential(
          (0): SwinTransformerBlockV2(
            (norm1): LayerNorm((1024,), eps=1e-05, elementwise_affine=True)
            (attn): ShiftedWindowAttentionV2(
              (qkv): Linear(in_features=1024, out_features=3072, bias=True)
              (proj): Linear(in_features=1024, out_features=1024, bias=True)
              (cpb_mlp): Sequential(
                (0): Linear(in_features=2, out_features=512, bias=True)
                (1): ReLU(inplace=True)
                (2): Linear(in_features=512, out_features=32, bias=False)
              )
            )
            (stochastic_depth): StochasticDepth(p=0.4782608695652174, mode=row)
            (norm2): LayerNorm((1024,), eps=1e-05, elementwise_affine=True)
            (mlp): MLP(
              (0): Linear(in_features=1024, out_features=4096, bias=True)
              (1): GELU(approximate='none')
              (2): Dropout(p=0.0, inplace=False)
              (3): Linear(in_features=4096, out_features=1024, bias=True)
              (4): Dropout(p=0.0, inplace=False)
            )
          )
          (1): SwinTransformerBlockV2(
            (norm1): LayerNorm((1024,), eps=1e-05, elementwise_affine=True)
            (attn): ShiftedWindowAttentionV2(
              (qkv): Linear(in_features=1024, out_features=3072, bias=True)
              (proj): Linear(in_features=1024, out_features=1024, bias=True)
              (cpb_mlp): Sequential(
                (0): Linear(in_features=2, out_features=512, bias=True)
                (1): ReLU(inplace=True)
                (2): Linear(in_features=512, out_features=32, bias=False)
              )
            )
            (stochastic_depth): StochasticDepth(p=0.5, mode=row)
            (norm2): LayerNorm((1024,), eps=1e-05, elementwise_affine=True)
            (mlp): MLP(
              (0): Linear(in_features=1024, out_features=4096, bias=True)
              (1): GELU(approximate='none')
              (2): Dropout(p=0.0, inplace=False)
              (3): Linear(in_features=4096, out_features=1024, bias=True)
              (4): Dropout(p=0.0, inplace=False)
            )
          )
        )
      )
      (norm): LayerNorm((1024,), eps=1e-05, elementwise_affine=True)
      (permute): Permute()
      (avgpool): AdaptiveAvgPool2d(output_size=1)
      (flatten): Flatten(start_dim=1, end_dim=-1)
      (head): Linear(in_features=1024, out_features=1000, bias=True)
    )
  )
  (fpn): FPN(
    (fpn): FeaturePyramidNetwork(
      (inner_blocks): ModuleList(
        (0): Conv2dNormActivation(
          (0): Conv2d(128, 128, kernel_size=(1, 1), stride=(1, 1))
        )
        (1): Conv2dNormActivation(
          (0): Conv2d(256, 128, kernel_size=(1, 1), stride=(1, 1))
        )
        (2): Conv2dNormActivation(
          (0): Conv2d(512, 128, kernel_size=(1, 1), stride=(1, 1))
        )
        (3): Conv2dNormActivation(
          (0): Conv2d(1024, 128, kernel_size=(1, 1), stride=(1, 1))
        )
      )
      (layer_blocks): ModuleList(
        (0-3): 4 x Conv2dNormActivation(
          (0): Conv2d(128, 128, kernel_size=(3, 3), stride=(1, 1), padding=(1, 1))
        )
      )
    )
  )
  (head): SimpleHead(
    (layers): Sequential(
      (0): Sequential(
        (0): Conv2d(128, 128, kernel_size=(3, 3), stride=(1, 1), padding=(1, 1))
        (1): ReLU(inplace=True)
      )
      (1): Conv2d(128, 2, kernel_size=(3, 3), stride=(1, 1), padding=(1, 1))
    )
  )
)
Epoch 0/399
----------
train Loss: 0.3439 Acc: 0.7935 F1: 0.7848
val Loss: 0.0823 Acc: 0.8589 F1: 0.8385

Epoch 1/399
----------
train Loss: 0.0766 Acc: 0.8900 F1: 0.8847
val Loss: 0.0729 Acc: 0.8630 F1: 0.8434

Epoch 2/399
----------
train Loss: 0.0664 Acc: 0.8983 F1: 0.8943
val Loss: 0.0545 Acc: 0.9273 F1: 0.9243

Epoch 3/399
…
